runs/train_lin_grouped/tau_epsilon__1__1733694515/best.pt (torch, 22890 bytes, 5 tensors)

network.0.weight f4 [64, 13]
000000 24 6a 6f 3e 3a c4 0f be a9 84 c7 bc a0 c1 f1 3d
       0.23380333 -0.14039698 -0.02435525 0.11804509
000010 cd ff 5c be 69 34 0d 3e a5 1b 8d bd 27 a6 9e 3d
       -0.21581955 0.13789524 -0.068900384 0.07746535
000020 89 1d b8 3c be a5 d5 bc ab 6c bd bb db 46 74 bd
       0.022475021 -0.026080009 -0.0057807765 -0.059637886
000030 ee fe e9 3c 93 ea 05 be cc b9 84 bd 2f bf 92 bd
       0.028563943 -0.13077764 -0.064807504 -0.071653716
000040 aa e0 ae 3d c7 eb 1b 3d d0 31 98 3e 3e 0c 15 3e
       0.08538945 0.03806665 0.29725504 0.14555451
000050 c7 b4 c5 bd df 01 6d be d6 62 c3 3c f2 0c 81 bd
       -0.09653621 -0.23145245 0.02385084 -0.06301297
000060 b7 f5 45 be a7 30 1a 3e 3f 18 45 3e 97 91 a6 3d
       -0.19332014 0.15057622 0.1924753 0.08133238
000070 3d ee 97 be 86 d3 18 3e 36 83 2a 3d 2b a3 46 3e
       -0.2967395 0.1492444 0.04162904 0.19398181
000080 b1 f7 ff 3d 66 49 96 be b2 df 4b be df 7c 70 bc
       0.12498415 -0.29352874 -0.19909552 -0.014678209
000090 6e 05 cb 3d a8 23 e0 bd 32 f3 1a 3d 65 a5 1a be
       0.09913145 -0.10944301 0.037829585 -0.15102156
0000a0 2d 00 80 3e 07 d5 0e be 68 50 3e 3e 25 3d 57 3b
       0.25000134 -0.13948451 0.1858536 0.0032842841
0000b0 9d 9e 15 be ca fb 11 3e a1 c1 16 be 28 0e a7 3d
       -0.14611287 0.14256206 -0.14722301 0.08156997
0000c0 92 04 a4 bd 3b 3b 57 bd 2e 85 88 be cd 14 1e be
       -0.08008684 -0.05254672 -0.26664108 -0.15437622
0000d0 82 1e 10 3e ea 7b 3a bd 60 24 89 3e b2 58 59 3e
       0.14074138 -0.04552833 0.26785564 0.21225241
0000e0 d9 0f a1 bd e7 98 87 be e4 ff dc 3d 79 0d 34 3d
       -0.07864351 -0.26483843 0.10790995 0.04395816
0000f0 0f 99 89 be 72 a2 ad 3d e8 be 7d 3e cc 99 39 3e
       -0.26874587 0.084782496 0.24779856 0.18125075
000100 55 aa aa bd 3b 22 b4 bd f1 8c c3 3c f6 ba 96 3d
       -0.083332695 -0.087955914 0.023870917 0.07359879
000110 c5 3e 46 be 9c 73 71 be d5 ae e9 3d f9 99 d0 bd
       -0.19359882 -0.23579258 0.114103 -0.10185618
000120 e0 3d 26 3e 0a 5d f7 ba cb b0 24 3d c5 9b 5f 3e
       0.16234541 -0.0018872332 0.040207665 0.21836765
000130 f5 41 03 3d 4e dd 22 3e 37 b0 d2 be b9 b2 33 3d
       0.032045323 0.15904734 -0.41150066 0.043871615
000140 ee 9c c9 be e3 2a af be 8d 2b 09 be 09 f8 fe bd
       -0.3937754 -0.34212407 -0.1339552 -0.12449653
000150 ca f9 06 3d 34 c5 90 be 5f f8 0a bc 9f e4 69 3e
       0.03295306 -0.28275454 -0.008482068 0.22841118
000160 a9 69 8b bd b1 23 f8 3d 98 4c 0a 3d d0 6c b7 bd
       -0.068072625 0.121161826 0.03376445 -0.08956301
000170 bf c7 a6 3d e0 93 b9 3d de be 02 be f8 76 ac bd
       0.08143567 0.09061408 -0.12768123 -0.08421129
000180 af d6 05 3e c3 8c a8 3d 8d dc 0f be 5a 2e a8 bd
       0.13070177 0.08229973 -0.14048977 -0.08211966
000190 19 eb 6d 3e cf 37 a6 bd d4 6b 53 3e 79 be f4 3d
       0.23234214 -0.081161134 0.20646602 0.11950392
0001a0 53 2b ac be 04 88 89 be 17 27 ff 3d 0b 6e e6 bd
       -0.33626804 -0.26861584 0.12458628 -0.11251458
0001b0 53 ad 28 3d 92 62 cc 3c 08 77 6e 3d da ee a4 3d
       0.04118092 0.024949346 0.058218986 0.0805337
0001c0 be f1 e0 3d 81 ea b3 be c2 d3 1c bd 7f 2c 93 3e
       0.10983609 -0.3513985 -0.038287885 0.28744885
0001d0 34 38 37 3e f3 dd 04 3e 21 c4 77 be 83 4c 8b be
       0.17892534 0.12975292 -0.24195911 -0.2720681
0001e0 d2 e5 4d be 94 fd 02 be bc 85 36 3e d2 0f 76 be
       -0.201072 -0.12792045 0.17824453 -0.24029472
0001f0 70 2f 0e 3e 66 0f 2a be 8c c0 40 be 48 5b dd bd
       0.13885283 -0.16607437 -0.18823451 -0.10808426
000200 e9 6f b7 3d 63 90 9e 3e ce fc 31 be 58 1e d2 3d
       0.08956892 0.30969533 -0.17381594 0.10259694
000210 de 83 76 3e ca e8 2b 3e 39 c1 40 3e 6b f6 56 3e
       0.24073741 0.1678802 0.18823709 0.20992438
000220 25 f1 02 3e 6f f2 a9 3d e8 f1 0e be 39 fe 3f be
       0.12787302 0.08298194 -0.13959467 -0.18749322
000230 35 66 14 bd fb a8 3b bc 40 e6 7b bd c7 6c db 3d
       -0.036230285 -0.011453862 -0.06149888 0.10714107
000240 47 40 6c 3d ca 87 a3 bd 36 1b 1e 3d e3 77 68 bc
       0.057678487 -0.07984884 0.03860017 -0.0141887395
000250 ec 61 53 3d 54 9b ad 3d 82 07 12 be 36 68 f8 3d
       0.051607057 0.08476892 -0.14260677 0.12129252
000260 b5 06 93 bd de 6a 01 be ed 72 ca be 62 f3 34 be
       -0.07179014 -0.12638423 -0.39540806 -0.17670968
000270 fe 8d 8d be 8c bf 48 be e7 96 c4 3d 90 67 47 be
       -0.27647394 -0.1960432 0.09599095 -0.194731
000280 18 0d 17 be 81 fa a2 3d 3c 75 bf 3d 95 72 22 3e
       -0.14751089 0.07957936 0.093485326 0.15864022
000290 e8 ee 06 be 80 63 49 3e c9 70 39 bd d9 31 03 be
       -0.13177073 0.19666862 -0.045273576 -0.12811984
0002a0 73 c7 31 be 35 9e f1 bd dd c0 96 bc 4e e9 0a 3e
       -0.1736124 -0.11797754 -0.018402511 0.13565561
0002b0 e9 2e 7b 3d f0 ac b4 3c ae 26 6d 3e 67 81 6a 3e
       0.061324034 0.02205512 0.23159286 0.22900926
0002c0 2c ae 6d 3e 2a 10 82 3d 21 4f 20 be f0 83 b7 3e
       0.23210973 0.06350739 -0.15655185 0.35842848
0002d0 84 2c a2 bd 3f a2 81 3d 95 94 03 bf e0 e4 b9 bd
       -0.07918647 0.06329774 -0.51398593 -0.090768576
0002e0 ed 97 20 be 92 2b 40 3e 3b 29 87 be 55 cf 83 be
       -0.15682955 0.18766621 -0.26398644 -0.2574412
0002f0 6e 4c c8 bb 0e ab 07 be ea e5 14 3d 76 1a 07 be
       -0.0061126268 -0.13248846 0.036352076 -0.13193688
000300 56 00 00 be 89 37 15 bc 32 2f 26 3e 67 e5 0a be
       -0.12500128 -0.009107479 0.16228941 -0.13564073
000310 d3 9d 8f 3d 4e 11 3a 3e 4b 5a 6b 3e 4a de 2a be
       0.070125245 0.18170664 0.22983663 -0.16686359
000320 b7 bb 82 3d d8 fc 2c be 9c da 4c 3e c6 42 03 be
       0.0638346 -0.16893327 0.20005268 -0.12818441
000330 7a 0d 01 3e 3e c0 5d bd 3c de 05 be fd 2d 63 bd
       0.12602797 -0.054138415 -0.13073057 -0.05546378
000340 a7 89 ae bd 5e 43 b7 3d 3b 8b c1 bb 58 80 c4 3d
       -0.08522349 0.08948396 -0.00590649 0.09594792
000350 07 d7 92 be 54 21 22 3e 1f b9 31 3e 32 42 72 3e
       -0.28679678 0.15833026 0.17355774 0.23658064
000360 a2 07 31 3e 78 7d 3e be ef 78 93 bb 02 9e 90 3e
       0.17288068 -0.1860255 -0.0045005004 0.2824555
000370 08 ae 16 be 41 b0 14 3e 49 93 8c be 1a 73 8e be
       -0.14714825 0.1452036 -0.2745612 -0.2782219
000380 e1 12 c3 3d 8a 63 81 be 3e 5f 45 bd fe a9 43 3e
       0.09525085 -0.25271255 -0.048186533 0.19107816
000390 27 bb fd 3d bd 4b 38 3e 92 eb d5 bd 32 a8 6d be
       0.12389212 0.17997642 -0.10445322 -0.23208693
0003a0 97 32 cb 3e 27 04 80 bc 54 b3 e9 bd 7a 77 8a 3d
       0.39687034 -0.01562698 -0.11411157 0.067610696
0003b0 da 9c 46 be fe ab 3a 3e 05 ff 31 3e 94 5a 61 be
       -0.19395772 0.18229672 0.17382438 -0.22007209
0003c0 6d 46 69 be 0c 06 c7 bc 76 94 ee 3d 61 9b 03 bc
       -0.22780772 -0.024294876 0.116494104 -0.008032651
0003d0 69 03 10 be 50 c7 cf 3b 33 79 85 be e2 3a 90 be
       -0.14063801 0.0063408986 -0.2606903 -0.28169924
0003e0 bc 21 7a be bb 23 34 3e 1e 97 1b 3e 99 b8 01 be
       -0.24426931 0.17591755 0.15194365 -0.12668075
0003f0 ad 70 15 bd 8c 47 a1 3d d3 04 89 bd ab 96 64 be
       -0.03648441 0.078749746 -0.06690373 -0.223231

network.0.bias f4 [64]
000000 ff 50 e6 3f c6 7b 84 bf b1 8a f6 3f be 33 d9 bd
       1.7993468 -1.0350273 1.9261075 -0.10605572
000010 fa ba c8 bf c2 25 17 c0 57 43 b6 3d 5b 8c 03 40
       -1.5682061 -2.3616796 0.08899563 2.0554416
000020 6f 3a a8 3f a0 6f 3b 3e 6a 60 07 c0 f1 c3 31 3f
       1.3142833 0.183043 -2.1152596 0.6943961
000030 44 ea 08 3f c3 87 fb bf 0a ae 46 3d e9 63 bf 3f
       0.5348246 -1.9650806 0.04850582 1.4952365
000040 cc 86 04 c0 87 05 4c 3f 83 97 89 be 6e 6a 3e 3f
       -2.0707273 0.79695934 -0.26873407 0.7438115
000050 98 33 0b c0 db 21 b6 3f fb 1a 11 be 9c 6c cf 3f
       -2.175024 1.4229082 -0.14170448 1.620502
000060 bc f9 86 be b9 6a 5f be 7f 70 04 bf 34 83 15 c0
       -0.26362407 -0.21818055 -0.51734155 -2.336133
000070 5e 65 06 40 1a bd eb 3f 6f a6 08 c0 d1 96 0c 40
       2.099937 1.8417084 -2.1351583 2.196705
000080 f7 a5 27 3e e7 65 7e 3f ec 32 c7 bf a9 1a 3d 3f
       0.16371904 0.9937424 -1.5562415 0.73868805
000090 8a 5b df 3f ff 6b 07 40 76 f8 94 be 45 9b 0e 3f
       1.744981 2.1159666 -0.2909581 0.5570567
0000a0 0c 05 43 3f bf 7f e2 3d b4 24 99 3f 96 11 ad bd
       0.76179576 0.11059522 1.1964326 -0.0845062
0000b0 97 3a 07 c0 9f 9b d7 3e 2f 32 fe bf bb eb f0 bf
       -2.112951 0.42110917 -1.9859065 -1.8821939
0000c0 0a 5b f4 bf 83 ad 1c bc 9b 22 8c be 3e 82 08 40
       -1.9090283 -0.009562853 -0.27370152 2.1329494
0000d0 b0 6a 03 40 aa fa ba 3d 17 b5 f2 3f 9b a8 0d 40
       2.0533867 0.091298416 1.8961514 2.2134159
0000e0 87 50 e1 3f fb e7 bb bf 4f 65 9d be bb 3b 06 40
       1.76027 -1.468017 -0.30741355 2.0973957
0000f0 42 1e 80 3f b0 99 da 3f 05 14 d3 3e 42 af 15 be
       1.0009234 1.7078152 0.4122621 -0.14617637

network.2.weight f4 [64, 64]
000000 e6 26 8e 3e db 8c 1f 3e fc 45 3d 3e 24 8a d8 3c
       0.27764052 0.15581076 0.18483728 0.026433058
000010 a5 ae 05 bb 41 08 81 bd 42 67 42 3c 7f f8 1a 3e
       -0.0020398286 -0.063004024 0.011865439 0.15133856
000020 13 84 c7 3d 6f cb 7b bd e0 f0 5e bd 60 70 27 3e
       0.09741988 -0.061473306 -0.054428935 0.16351461
000030 08 a6 86 3e 90 7a f9 3d f0 c0 4f bd 4c 8a 18 3e
       0.26298547 0.1218158 -0.05072111 0.14896506
000040 7b 8c b8 3d a8 a5 c8 3d 30 49 fd 3c 36 c9 a1 3d
       0.090111695 0.097972214 0.030918688 0.07899706
000050 b6 28 39 3d 2b 1b 8d 3e e8 a4 d0 bc 42 af e8 3d
       0.04520484 0.2755979 -0.025469258 0.11361553
000060 f2 6f c7 3c 08 41 38 3d 0d 40 1d be 3d a2 dd b9
       0.024345372 0.044983894 -0.15356465 -0.00042273282
000070 90 d1 de 3e e1 35 c0 3d 40 f7 f2 3c ec 1c bf 3e
       0.43519258 0.093852766 0.029658914 0.37326753
000080 1d 3b a3 3d 5e c5 06 3e ff 93 98 3d e2 aa 7c bb
       0.07970259 0.13161227 0.07450103 -0.0038554003
000090 84 4f 51 3e ba f2 7a 3e 58 3c 22 bd eb 26 a1 3e
       0.20440489 0.24506655 -0.03960833 0.31475005
0000a0 34 c1 90 3e 5e f2 fa bd c7 f5 c1 3d db bb c5 3c
       0.28272402 -0.12253259 0.094707064 0.024137428
0000b0 95 7c c5 bd 5b b9 83 3d 92 ff fd 3d 7e f5 ec 3d
       -0.09642903 0.06431838 0.12402262 0.115702614
0000c0 44 be 27 3d d5 bf 2e be 89 08 b2 bd 4a 4a 91 3e
       0.040952936 -0.17065366 -0.08693034 0.2837699
0000d0 61 81 8e 3e 04 ab 2a 3e c8 3f ae 3e 9e 84 7c 3e
       0.27833083 0.166668 0.34033036 0.24659964
0000e0 01 d9 1a 3e e6 4c 4a 3e 67 51 af bd 2e 94 a2 3e
       0.15121843 0.19755897 -0.08560448 0.31753677
0000f0 5c 6c 2d 3f 80 97 70 3e 48 0f 19 3e 38 d9 b8 bc
       0.6774347 0.23495293 0.14947236 -0.022564515
000100 4c 38 16 bd 81 a1 41 bd 7f f8 08 be f4 da ef bd
       -0.036674783 -0.047273163 -0.13376044 -0.11711684
000110 cf 35 d4 3d 5f 2c 95 3d 85 19 13 3d 0a 8d 64 bd
       0.10361826 0.07283854 0.03591301 -0.055798568
000120 91 f4 ac 3d 73 d0 59 bd bf 1d 69 3d e5 67 52 3d
       0.08445085 -0.05317731 0.056913134 0.051368613
000130 bb ed 70 bd 3d 22 7c bd 01 18 c4 bc 94 a3 12 be
       -0.058820467 -0.06155609 -0.023937227 -0.14320213
000140 d6 f4 90 3c e5 94 72 bd 4c 3b 6b 3d 07 79 80 3d
       0.017694872 -0.05922403 0.057429597 0.06273084
000150 f9 2b 25 bd a4 27 d2 3c 40 97 cc 3c fb 95 4c 3d
       -0.04032514 0.025653668 0.024974465 0.04994772
000160 2e 08 23 bd 20 ce 33 bc 1c 9d 2a bd 31 4d b1 3d
       -0.039802723 -0.010974437 -0.041653737 0.08657301
000170 9c 8f 86 bd 83 a2 00 be 39 84 bc bb 8c 1c a8 3d
       -0.0657036 -0.12561993 -0.005753067 0.0820857
000180 1c 82 55 3d ee c1 1a be 9b 51 e5 bd d4 f0 94 3d
       0.052126035 -0.15113041 -0.11197206 0.07272497
000190 77 7c 08 3b e3 30 03 be 48 4e 21 bd c8 d6 5f 3d
       0.002082614 -0.12811618 -0.039381295 0.05464819
0001a0 64 2e 4e bc e7 e0 65 bd af 22 a9 bd ab 1c a1 bd
       -0.012584303 -0.056122687 -0.082585685 -0.07866796
0001b0 aa 3b ea bc 01 45 f2 3c 76 6e 07 3d a5 92 ad bd
       -0.028592903 0.02957392 0.033064328 -0.08475236
0001c0 26 2e 19 bd b3 6f 04 be 3f 8b ad 3d 12 06 7f 3d
       -0.037397526 -0.12933235 0.08473825 0.06226165
0001d0 d6 86 df 3d dc 3d 51 3d 60 f5 2b bd 5e b7 c2 bc
       0.1091439 0.051084384 -0.041982055 -0.023769077
0001e0 1b a4 5f 3d 00 35 05 be c8 7d 57 bb c2 8c c8 bd
       0.054599863 -0.13008499 -0.0032881368 -0.097924724
0001f0 b7 27 1d be 94 bf ef bc 39 e8 71 bd e1 0b cd bd
       -0.15347181 -0.029266156 -0.059059355 -0.10012031
000200 80 54 89 be 78 96 85 3e b3 7d 47 be a1 46 bc bd
       -0.2682228 0.2609136 -0.19481544 -0.09193159
000210 6f df c1 bd c0 37 ad 3e 65 14 93 bc 2d 42 6d be
       -0.09466445 0.33831596 -0.01795406 -0.23169775
000220 dc 9e 47 3d 45 ac 87 3d 6a c4 31 3e 9a 76 ac 3c
       0.048735484 0.06624655 0.17360082 0.021052647
000230 d6 ad a4 bd 38 31 04 3e 50 66 c9 bc 29 bd 16 bd
       -0.08040969 0.129094 -0.02458492 -0.03680149
000240 45 2a 41 bd 91 c0 39 3d 08 64 ae bd 0a 81 4d 3e
       -0.047159452 0.04534966 -0.08515173 0.20068756
000250 1b e6 a5 3e 9e 44 aa 3d 6a 9c 99 3d 7e 53 47 3d
       0.3240212 0.08313869 0.07500537 0.04866361
000260 82 92 87 3c 40 c3 02 bb 3f 83 73 3e 1b e1 85 3d
       0.016549353 -0.0019952804 0.23780535 0.06537076
000270 c3 83 91 be e1 2d 0b be 04 71 36 3e b2 d5 94 be
       -0.2842084 -0.1359172 0.1781655 -0.29069287
000280 c6 b8 d2 3d 28 c9 1e 3e ec 0e 7a 3d a2 46 b1 3e
       0.10289149 0.15506423 0.061049387 0.346242
000290 23 03 69 bd e1 31 9f bd 18 0e 14 be 2c ad 04 bc
       -0.056887757 -0.077731855 -0.14458501 -0.008097928
0002a0 f2 e0 e2 bc 6b 27 cb 3d 84 bb 04 3e 92 c6 6e bd
       -0.027695153 0.09919628 0.12962157 -0.05829484
0002b0 43 87 2c 3d 4e 02 ff 3c 7c ad 42 3e 2a 65 36 3e
       0.042121183 0.031129029 0.19011492 0.17812029
0002c0 ef 88 27 3e 26 fa 1b 3d a0 65 f4 bd 35 31 90 be
       0.1636083 0.038080357 -0.11933446 -0.28162542
0002d0 d1 b9 3a be 51 ab 80 3e a1 b4 1c be 3a 9d 9b be
       -0.18234946 0.25130704 -0.1530328 -0.30393392
0002e0 30 08 50 3d 78 ed 39 3d 0d 02 a7 3d 14 07 95 bd
       0.05078906 0.045392483 0.08154688 -0.07276741
0002f0 7a 4a b4 3e 93 4f 3a 3c 6d fb 28 be fb d3 fa 3c
       0.3521307 0.011371511 -0.16502161 0.030618658
000300 a4 14 9b 3e 7a 35 39 3e ed ee 86 3e ef 35 70 3d
       0.30289185 0.18086806 0.2635416 0.058645185
000310 3e 01 7e 3d e3 43 33 be c0 5c 46 3e 38 36 78 3e
       0.062012903 -0.17506365 0.19371319 0.24239433
000320 7c e4 02 be 7f a4 29 bd e2 d9 5d bc 1b 7f 65 3e
       -0.12782472 -0.04141664 -0.013540717 0.22411768
000330 3f dd eb 3e 70 98 93 3d ce 69 83 bd 9f d2 0e 3e
       0.46067235 0.072068095 -0.06416665 0.13947533
000340 03 9c 76 ba a0 ab 0b 3e 98 88 7d 3d 3b 13 43 3d
       -0.0009407403 0.13639688 0.061897844 0.04762576
000350 27 b6 81 3c c0 ad c7 3e 98 d1 ff bd 74 34 70 3e
       0.015833927 0.38999748 -0.12491149 0.2345751
000360 0f a9 a8 bc f0 be 88 3c 58 9b 05 bc 00 43 1d 3d
       -0.020588426 0.016692609 -0.008154713 0.038393974
000370 67 16 0a 3f 86 b3 60 3e 3b d6 fe bc d6 06 02 3f
       0.53940433 0.21943483 -0.031108012 0.5079168
000380 37 d0 55 3e 36 e6 23 3e 83 a4 13 3e 87 39 2b 3e
       0.20880209 0.16005787 0.14418225 0.16721164
000390 db 73 36 3e 07 6d c2 3e c1 ea 43 bd 1c 90 a6 3e
       0.17817633 0.37973806 -0.0478313 0.32531822
0003a0 41 e2 75 3e e3 e6 4d bd 66 0a 78 3e f8 a5 f7 3d
       0.2401209 -0.05026902 0.24222717 0.12092203
0003b0 79 00 10 be 70 2c c1 3d 41 2d 2c bd 7f 70 30 3d
       -0.1406268 0.09432304 -0.042035345 0.043076035
0003c0 af 20 69 bb 8a 83 fd bd b9 3b a2 3c 2f a5 e2 3e
       -0.003557246 -0.12378605 0.019803869 0.4426665
0003d0 ec 2c a4 3e 34 fa 3b 3e c6 70 dc 3e d6 62 cc 3e
       0.32065523 0.18357164 0.4305479 0.39919156
0003e0 fa 78 cd 3e f1 05 8f 3d 73 7a ec 3d 36 3c fb 3e
       0.4013136 0.06983555 0.11546793 0.49069375
0003f0 dc 15 15 3f 34 53 f6 3d 42 80 7b bb 39 e8 56 ba
       0.5823648 0.120275885 -0.0038376008 -0.0008198056

network.2.bias f4 [64]
000000 c6 85 a8 3f 4f ea 32 bd 36 7a c3 bf 06 f0 b2 3f
       1.3165824 -0.043680485 -1.5271671 1.3979499
000010 d3 39 ca 3f d6 24 8b be 7e eb b1 3f 5e 65 cb 3f
       1.5798897 -0.2717654 1.3899992 1.589031
000020 d4 3c 16 3a 72 fb ac bb 96 12 bc bf 86 86 d8 3f
       0.000573111 -0.005278998 -1.4693172 1.6916053
000030 5c 9c 0e be 6a 8a af bb e0 b4 96 3f fd 6e bb 3f
       -0.13926834 -0.0053570764 1.1773949 1.4643246
000040 10 c8 be 3f ea 6f 97 3d b4 ca c8 3f 3f 6e 20 3c
       1.4904804 0.07394393 1.568686 0.00979191
000050 fe 37 f1 bd 6b f9 34 3d bb 44 cd 3f b1 2a d5 3c
       -0.11778258 0.044183176 1.60366 0.026021333
000060 a8 2f b1 3f 91 a8 c7 3f 9e 77 ce 3f c4 74 bd bf
       1.3842669 1.5598317 1.6130254 -1.4801259
000070 28 21 81 3d 99 03 c0 3f 6f 9d 19 bd 2b 9f cf bf
       0.06305152 1.5001098 -0.037503656 -1.6220449
000080 ef 55 d0 3d b9 5c b5 3f 53 56 af 3f 8e f8 ce 3f
       0.101726405 1.4168922 1.3698219 1.6169603
000090 5e be 57 3f 01 70 60 3d af a6 c9 bf 67 cf c9 3f
       0.8427485 0.054794315 -1.5753993 1.5766419
0000a0 9d 75 bf 3f 4e b0 a6 3f 18 4f 42 3d ad 8c b4 bf
       1.4957768 1.3022554 0.04743871 -1.4105431
0000b0 fe 57 ba 3f c5 3e cc 3f d4 0a d6 3f 6a 70 c3 bf
       1.4558103 1.5956656 1.6722054 -1.5268681
0000c0 a4 e8 bf ba a9 ff c3 3f 5e ae 20 3d b4 da cd bf
       -0.0014641476 1.5312396 0.03922879 -1.6082368
0000d0 04 6b 9f 3f 56 81 d0 3f ef 99 a6 3f 04 61 b8 3f
       1.2454534 1.628947 1.3015727 1.4404607
0000e0 b4 ba e9 bd b6 d1 be 3f 2e 32 85 bf 8e 58 ae 3f
       -0.11412564 1.4907749 -1.0405939 1.3620775
0000f0 e6 8a b8 3f 46 2d 9b 3f fc bf c4 bf 58 83 a3 3d
       1.4417388 1.2123191 -1.5371089 0.07984036

network.4.weight f4 [1, 64]
000000 74 b1 81 3e 47 57 8b 3d d8 70 0b bf ca c5 d5 3e
       0.25330698 0.06803756 -0.5446906 0.41752464
000010 13 48 6f 3f 9f 7e 50 bc a8 8e b9 3f f3 7b 75 3e
       0.9346935 -0.012725501 1.449666 0.23973064
000020 79 bf a0 bd 72 ab 7d bd d9 23 30 bf 91 71 c8 3f
       -0.078490205 -0.06193108 -0.688047 1.5659658
000030 e1 12 86 bc 58 f9 2d bd 67 b0 91 3f 73 0f 9b 3e
       -0.016366424 -0.04247412 1.1381959 0.30285224
000040 35 52 9e 3e 42 5b c6 bd 5e 9c c3 3f 59 6d b5 3e
       0.30922094 -0.09685375 1.5282094 0.35434988
000050 f6 c1 85 3b fd 00 29 bd 56 52 ae 3e 38 59 b3 38
       0.00408196 -0.041260708 0.34047192 8.5520034e-05
000060 6f d8 c5 3f a0 30 cd 3e 74 af 30 3f 24 99 04 bf
       1.5456675 0.4007616 0.6901772 -0.51796174
000070 49 38 6b bd 45 95 94 3e 7b 82 a9 bd 01 8a 14 bf
       -0.057426725 0.29020134 -0.0827684 -0.5802308
000080 4f 3d 59 bd 3a e3 c1 3e cc b8 b0 3e fe 87 7a 3f
       -0.053036984 0.37868673 0.3451599 0.9786376
000090 e1 6e c5 3f 6b d4 8f 3d aa 1d 6e bf a4 e7 47 3f
       1.5424463 0.070229374 -0.93014014 0.7808783
0000a0 3a 90 df 3f 5a 0d c6 3f 8c b3 7b bd 3d 40 06 bf
       1.746589 1.5472825 -0.061450526 -0.5244177
0000b0 2d 0e ba 3f 0f 1a 0c 3f 96 31 d6 3f 8d a0 d2 be
       1.4535576 0.5472726 1.6733882 -0.41138116
0000c0 78 e7 93 bd 6b ae ac 3e 6f b5 ac 3e 3d ce 18 bf
       -0.072218835 0.3372682 0.33732173 -0.59689695
0000d0 f7 1f 64 3e 45 f5 2c 3f d8 38 97 3e 21 08 a1 3f
       0.22277819 0.6756175 0.29535556 1.2580606
0000e0 1a f5 2a bc b5 30 aa 3e a8 41 14 bf b4 7d 8f 3e
       -0.010434413 0.33240286 -0.57912683 0.2802559
0000f0 d2 cf 9e 3f 44 fc a9 3f c6 8f eb be 5e 58 b5 bd
       1.2407172 1.328011 -0.46008128 -0.08854745
